…
   nn.Conv2d(3, 16, kernel_size=3, stride=1, padding=1),\n    nn.ReLU(),\n    nn.MaxPool2d(2),\n    nn.Flatten(),\n    nn.Linear(16*16*16, 10)\n)\n\nsummary(model, input_size=(1, 3, 32, 32))  # batch_size=1, channel=3, height=32, width=32\n</code></pre> <p>\u8f93\u51fa\u7ed3\u679c\uff1a <pre><code>==========================================================================================\nLayer (type:depth-idx)                   Output Shape              Param #\n==========================================================================================\nSequential                               [1, 10]                   --\n\u251c\u2500Conv2d: 1-1                            [1, 16, 32, 32]           448\n\u251c\u2500ReLU: 1-2                              [1, 16, 32, 32]           --\n\u251c\u2500MaxPool2d: 1-3                         [1, 16, 16, 16]           --\n\u251c\u2500Flatten: 1-4                           [1, 4096]                 --\n\u251c\u2500Linear: 1-5                            [1, 10]                   40,970\n==========================================================================================\nTotal params: 41,418\nTrainable params: 41,418\nNon-trainable params: 0\nTotal mult-adds (M): 0.50\n==========================================================================================\nInput size (MB): 0.01\nForward/backward pass size (MB): 0.13\nParams size (MB): 0.17\nEstimated Total Size (MB): 0
…
